…
14.1 K    Trainable params
0         Non-trainable params
14.1 K    Total params
0.057     Total estimated model params size (MB)
Adam

Training is starting 2023-07-05 20:22:13.146512...
Max memory allocated after creating DDP:: 0.10888671875MB 
Free memory: 24259.69 MiB
GPU:0
DistributedDataParallel(
  (module): MyLCWALitModule(
    (model): NodePiece(
      (loss): BCEWithLogitsLoss()
      (interaction): DistMultInteraction()
      (entity_representations): ModuleList(
        (0): NodePieceRepresentation(
          (base): ModuleList(
            (0): TokenizationRepresentation(
              (vocabulary): Embedding(
                (_embeddings): Embedding(221, 64)
              )
            )
          )
          (combination): ConcatAggregationCombination()
        )
      )
      (relation_representations): ModuleList(
        (0): SubsetRepresentation(
          (base): Embedding(
            (_embeddings): Embedding(221, 64)
          )
        )
      )
      (weight_regularizers): ModuleList()
    )
    (loss): BCEWithLogitsLoss()
  )
)
Adam (
Parameter Group 0
    amsgrad: False
    betas: (0.9, 0.999)
    capturable: False
    differentiable: False
    eps: 1e-08
    foreach: None
    fused: None
    lr: 0.01
    maximize: False
    weight_decay: 0
)
NumOfDataPoints:1818 | NumOfEpochs:1 | LearningRate:0.01 | BatchSize:20 | EpochBatchsize:91
l:10
r:20
batch_size:15
Max memory allocated after creating DDP:: 0.10888671875MB 
Free memory: 24259.69 MiB
GPU:0
DistributedDataParallel(
  (module): MyLCWALitModule(
    (model): NodePiece(
      (loss): BCEWithLogitsLoss()
      (interaction): DistMultInteraction()
      (entity_representations): ModuleList(
        (0): NodePieceRepresentation(
          (base): ModuleList(
            (0): TokenizationRepresentation(
              (vocabulary): Embedding(
                (_embeddings): Embedding(221, 64)
              )
            )
          )
          (combination): ConcatAggregationCombination()
        )
      )
      (relation_representations): ModuleList(
        (0): SubsetRepresentation(
          (base): Embedding(
            (_embeddings): Embedding(221, 64)
          )
        )
      )
      (weight_regularizers): ModuleList()
    )
    (loss): BCEWithLogitsLoss()
  )
)
Adam (
Parameter Group 0
    amsgrad: False
    betas: (0.9, 0.999)
    capturable: False
    differentiable: False
    eps: 1e-08
    foreach: None
    fused: None
    lr: 0.01
    maximize: False
    weight_decay: 0
)
NumOfDataPoints:1818 | NumOfEpochs:1 | LearningRate:0.01 | BatchSize:15 | EpochBatchsize:122
l:10
r:15
batch_size:12
Max memory allocated after creating DDP:: 0.10888671875MB 
Free memory: 24259.69 MiB
GPU:0
DistributedDataParallel(
  (module): MyLCWALitModule(
    (model): NodePiece(
      (loss): BCEWithLogitsLoss()
      (interaction): DistMultInteraction()
      (entity_representations): ModuleList(
        (0): NodePieceRepresentation(
          (base): ModuleList(
            (0): TokenizationRepresentation(
              (vocabulary): Embedding(
                (_embeddings): Embedding(221, 64)
              )
            )
          )
          (combination): ConcatAggregationCombination()
        )
      )
      (relation_representations): ModuleList(
        (0): SubsetRepresentation(
          (base): Embedding(
            (_embeddings): Embedding(221, 64)
          )
        )
      )
      (weight_regularizers): ModuleList()
    )
    (loss): BCEWithLogitsLoss()
  )
)
Adam (
Parameter Group 0
    amsgrad: False
    betas: (0.9, 0.999)
    capturable: False
    differentiable: False
    eps: 1e-08
    foreach: None
    fused: None
    lr: 0.01
    maximize: False
    weight_decay: 0
)
NumOfDataPoints:1818 | NumOfEpochs:1 | LearningRate:0.01 | BatchSize:12 | EpochBatchsize:152
l:10
r:12
batch_size:11
Max memory allocated after creating DDP:: 0.10888671875MB 
Free memory: 24259.69 MiB
GPU:0
DistributedDataParallel(
  (module): MyLCWALitModule(
    (model): NodePiece(
      (loss): BCEWithLogitsLoss()
      (interaction): DistMultInteraction()
      (entity_representations): ModuleList(
        (0): NodePieceRepresentation(
          (base): ModuleList(
            (0): TokenizationRepresentation(
              (vocabulary): Embedding(
                (_embeddings): Embedding(221, 64)
              )
            )
          )
          (combination): ConcatAggregationCombination()
        )
      )
      (relation_representations): ModuleList(
        (0): SubsetRepresentation(
          (base): Embedding(
            (_embeddings): Embedding(221, 64)
          )
        )
      )
      (weight_regularizers): ModuleList()
    )
    (loss): BCEWithLogitsLoss()
  )
)
Adam (
Parameter Group 0
    amsgrad: False
    betas: (0.9, 0.999)
    capturable: False
    differentiable: False
    eps: 1e-08
    foreach: None
    fused: None
    lr: 0.01
    maximize: False
    weight_decay: 0
)
NumOfDataPoints:1818 | NumOfEpochs:1 | LearningRate:0.01 | BatchSize:11 | EpochBatchsize:166
…
Relation Index:0.00000 in GB
Train set :0.00001 in GB

# of CPUs:64 | # of GPUs:1 | # of CPUs for dataloader:1
NVIDIA GeForce RTX 3090
------------------- Train -------------------
Initializing TorchDDPTrainer GPU	Took 0.0003 seconds | Current Memory Usage  1768.6 in MB
Initializing Model...	Initializing the selected model... False
Took 0.0227 seconds | Current Memory Usage  1768.9 in MB
MyLCWALitModule(
  (model): ComplExLiteral(
    (loss): BCEWithLogitsLoss()
    (interaction): ComplExInteraction()
    (entity_representations): ModuleList(
      (0): CombinedRepresentation(
        (base): ModuleList(
          (0): Embedding(
            (_embeddings): Embedding(14, 128)
          )
          (1): Embedding(
            (_embeddings): Embedding(14, 2)
          )
        )
        (combination): ComplexSeparatedCombination(
          (real_combination): ConcatProjectionCombination(
            (projection): Sequential(
              (0): Linear(in_features=66, out_features=64, bias=True)
              (1): Dropout(p=0.2, inplace=False)
              (2): Tanh()
            )
          )
          (imag_combination): ConcatProjectionCombination(
            (projection): Sequential(
              (0): Linear(in_features=66, out_features=64, bias=True)
              (1): Dropout(p=0.2, inplace=False)
              (2): Tanh()
            )
          )
        )
      )
    )
    (relation_representations): ModuleList(
      (0): Embedding(
        (_embeddings): Embedding(55, 128)
      )
    )
    (weight_regularizers): ModuleList()
  )
  (loss): BCEWithLogitsLoss()
)
  | Name  | Type              | Params
--------------------------------------------
0 | model | ComplExLiteral    | 17.4 K
1 | loss  | BCEWithLogitsLoss | 0     
--------------------------------------------
17.4 K    Trainable params
28        Non-trainable params
17.4 K    Total params
0.070     Total estimated model params size (MB)
…
# of CPUs:64 | # of GPUs:1 | # of CPUs for dataloader:1
NVIDIA GeForce RTX 3090
------------------- Train -------------------
Initializing TorchDDPTrainer GPU	Took 0.0002 seconds | Current Memory Usage  1769.3 in MB
Initializing Model...	Initializing the selected model... False
Took 0.0115 seconds | Current Memory Usage  1769.3 in MB
MyLCWALitModule(
  (model): CompGCN(
    (loss): BCEWithLogitsLoss()
    (interaction): DistMultInteraction()
    (entity_representations): ModuleList(
      (0): SingleCompGCNRepresentation(
        (combined): CombinedCompGCNRepresentations(
          (entity_representations): Embedding(
            (_embeddings): Embedding(14, 64)
          )
          (relation_representations): Embedding(
            (_embeddings): Embedding(220, 64)
          )
          (layers): ModuleList(
            (0): CompGCNLayer(
              (composition): MultiplicationCompositionModule()
              (edge_weighting): SymmetricEdgeWeighting()
              (w_rel): Linear(in_features=64, out_features=64, bias=False)
              (drop): Dropout(p=0.0, inplace=False)
              (bn): BatchNorm1d(64, eps=1e-05, momentum=0.1, affine=True, track_running_stats=True)
              (bias): Bias()
              (activation): Identity()
            )
          )
        )
      )
    )
    (relation_representations): ModuleList(
      (0): SingleCompGCNRepresentation(
        (combined): CombinedCompGCNRepresentations(
          (entity_representations): Embedding(
            (_embeddings): Embedding(14, 64)
          )
          (relation_representations): Embedding(
            (_embeddings): Embedding(220, 64)
          )
          (layers): ModuleList(
            (0): CompGCNLayer(
              (composition): MultiplicationCompositionModule()
              (edge_weighting): SymmetricEdgeWeighting()
              (w_rel): Linear(in_features=64, out_features=64, bias=False)
              (drop): Dropout(p=0.0, inplace=False)
              (bn): BatchNorm1d(64, eps=1e-05, momentum=0.1, affine=True, track_running_stats=True)
              (bias): Bias()
              (activation): Identity()
            )
          )
        )
      )
    )
    (weight_regularizers): ModuleList()
  )
  (loss): BCEWithLogitsLoss()
)
  | Name  | Type              | Params
--------------------------------------------
0 | model | CompGCN           | 31.6 K
1 | loss  | BCEWithLogitsLoss | 0     
…
Relation Index:0.00000 in GB
Train set :0.00001 in GB

# of CPUs:64 | # of GPUs:1 | # of CPUs for dataloader:1
NVIDIA GeForce RTX 3090
------------------- Train -------------------
Initializing TorchDDPTrainer GPU	Took 0.0002 seconds | Current Memory Usage  1770.2 in MB
Initializing Model...	Initializing the selected model... False
Took 0.0154 seconds | Current Memory Usage  1770.2 in MB
MyLCWALitModule(
  (model): DistMultLiteral(
    (loss): BCEWithLogitsLoss()
    (interaction): DistMultInteraction()
    (entity_representations): ModuleList(
      (0): CombinedRepresentation(
        (base): ModuleList(
          (0): Embedding(
            (_embeddings): Embedding(14, 64)
          )
          (1): Embedding(
            (_embeddings): Embedding(14, 2)
          )
        )
        (combination): ConcatProjectionCombination(
          (projection): Sequential(
            (0): Linear(in_features=66, out_features=64, bias=True)
            (1): Dropout(p=0.0, inplace=False)
            (2): Identity()
          )
        )
      )
    )
    (relation_representations): ModuleList(
      (0): Embedding(
        (_embeddings): Embedding(55, 64)
      )
    )
    (weight_regularizers): ModuleList()
  )
  (loss): BCEWithLogitsLoss()
)
  | Name  | Type              | Params
--------------------------------------------
0 | model | DistMultLiteral   | 8.7 K 
1 | loss  | BCEWithLogitsLoss | 0     
--------------------------------------------
8.7 K     Trainable params
28        Non-trainable params
8.7 K     Total params
0.035     Total estimated model params size (MB)
…
