…
# of CPUs:64 | # of GPUs:1 | # of CPUs for dataloader:1
NVIDIA GeForce RTX 3090
------------------- Train -------------------
Initializing TorchTrainer CPU Trainer...	Took 0.0024 seconds | Current Memory Usage  3323.1 in MB
Initializing Model...	Initializing the selected model... True
Took 0.0093 seconds | Current Memory Usage  3323.4 in MB
MySLCWALitModule(
  (model): CompGCN(
    (loss): BCEWithLogitsLoss()
    (interaction): DistMultInteraction()
    (entity_representations): ModuleList(
      (0): SingleCompGCNRepresentation(
        (combined): CombinedCompGCNRepresentations(
          (entity_representations): Embedding(
            (_embeddings): Embedding(14, 64)
          )
          (relation_representations): Embedding(
            (_embeddings): Embedding(110, 64)
          )
          (layers): ModuleList(
            (0): CompGCNLayer(
              (composition): MultiplicationCompositionModule()
              (edge_weighting): SymmetricEdgeWeighting()
              (w_rel): Linear(in_features=64, out_features=64, bias=False)
              (drop): Dropout(p=0.0, inplace=False)
              (bn): BatchNorm1d(64, eps=1e-05, momentum=0.1, affine=True, track_running_stats=True)
              (bias): Bias()
              (activation): Identity()
            )
          )
        )
      )
    )
    (relation_representations): ModuleList(
      (0): SingleCompGCNRepresentation(
        (combined): CombinedCompGCNRepresentations(
          (entity_representations): Embedding(
            (_embeddings): Embedding(14, 64)
          )
          (relation_representations): Embedding(
            (_embeddings): Embedding(110, 64)
          )
          (layers): ModuleList(
            (0): CompGCNLayer(
              (composition): MultiplicationCompositionModule()
              (edge_weighting): SymmetricEdgeWeighting()
              (w_rel): Linear(in_features=64, out_features=64, bias=False)
              (drop): Dropout(p=0.0, inplace=False)
              (bn): BatchNorm1d(64, eps=1e-05, momentum=0.1, affine=True, track_running_stats=True)
              (bias): Bias()
              (activation): Identity()
            )
          )
        )
      )
    )
    (weight_regularizers): ModuleList()
  )
  (loss): BCEWithLogitsLoss()
)
  | Name  | Type              | Params
--------------------------------------------
0 | model | CompGCN           | 24.6 K
1 | loss  | BCEWithLogitsLoss | 0     
…
