…
Train set :0.00001 in GB

# of CPUs:64 | # of GPUs:1 | # of CPUs for dataloader:1
NVIDIA GeForce RTX 3090
------------------- Train -------------------
Initializing TorchTrainer CPU Trainer...	Took 0.0033 seconds | Current Memory Usage  3331.4 in MB
Initializing Model...	Initializing the selected model... False
Took 0.0154 seconds | Current Memory Usage  3331.7 in MB
MyLCWALitModule(
  (model): ComplExLiteral(
    (loss): BCEWithLogitsLoss()
    (interaction): ComplExInteraction()
    (entity_representations): ModuleList(
      (0): CombinedRepresentation(
        (base): ModuleList(
          (0): Embedding(
            (_embeddings): Embedding(14, 128)
          )
          (1): Embedding(
            (_embeddings): Embedding(14, 2)
          )
        )
        (combination): ComplexSeparatedCombination(
          (real_combination): ConcatProjectionCombination(
            (projection): Sequential(
              (0): Linear(in_features=66, out_features=64, bias=True)
              (1): Dropout(p=0.2, inplace=False)
              (2): Tanh()
            )
          )
          (imag_combination): ConcatProjectionCombination(
            (projection): Sequential(
              (0): Linear(in_features=66, out_features=64, bias=True)
              (1): Dropout(p=0.2, inplace=False)
              (2): Tanh()
            )
          )
        )
      )
    )
    (relation_representations): ModuleList(
      (0): Embedding(
        (_embeddings): Embedding(55, 128)
      )
    )
    (weight_regularizers): ModuleList()
  )
  (loss): BCEWithLogitsLoss()
)
  | Name  | Type              | Params
--------------------------------------------
0 | model | ComplExLiteral    | 17.4 K
1 | loss  | BCEWithLogitsLoss | 0     
--------------------------------------------
17.4 K    Trainable params
28        Non-trainable params
17.4 K    Total params
0.070     Total estimated model params size (MB)
…
# of CPUs:64 | # of GPUs:1 | # of CPUs for dataloader:1
NVIDIA GeForce RTX 3090
------------------- Train -------------------
Initializing TorchTrainer CPU Trainer...	Took 0.0011 seconds | Current Memory Usage  3341.8 in MB
Initializing Model...	Initializing the selected model... False
Took 0.0229 seconds | Current Memory Usage  3342.3 in MB
MyLCWALitModule(
  (model): CompGCN(
    (loss): BCEWithLogitsLoss()
    (interaction): DistMultInteraction()
    (entity_representations): ModuleList(
      (0): SingleCompGCNRepresentation(
        (combined): CombinedCompGCNRepresentations(
          (entity_representations): Embedding(
            (_embeddings): Embedding(14, 64)
          )
          (relation_representations): Embedding(
            (_embeddings): Embedding(220, 64)
          )
          (layers): ModuleList(
            (0): CompGCNLayer(
              (composition): MultiplicationCompositionModule()
              (edge_weighting): SymmetricEdgeWeighting()
              (w_rel): Linear(in_features=64, out_features=64, bias=False)
              (drop): Dropout(p=0.0, inplace=False)
              (bn): BatchNorm1d(64, eps=1e-05, momentum=0.1, affine=True, track_running_stats=True)
              (bias): Bias()
              (activation): Identity()
            )
          )
        )
      )
    )
    (relation_representations): ModuleList(
      (0): SingleCompGCNRepresentation(
        (combined): CombinedCompGCNRepresentations(
          (entity_representations): Embedding(
            (_embeddings): Embedding(14, 64)
          )
          (relation_representations): Embedding(
            (_embeddings): Embedding(220, 64)
          )
          (layers): ModuleList(
            (0): CompGCNLayer(
              (composition): MultiplicationCompositionModule()
              (edge_weighting): SymmetricEdgeWeighting()
              (w_rel): Linear(in_features=64, out_features=64, bias=False)
              (drop): Dropout(p=0.0, inplace=False)
              (bn): BatchNorm1d(64, eps=1e-05, momentum=0.1, affine=True, track_running_stats=True)
              (bias): Bias()
              (activation): Identity()
            )
          )
        )
      )
    )
    (weight_regularizers): ModuleList()
  )
  (loss): BCEWithLogitsLoss()
)
  | Name  | Type              | Params
--------------------------------------------
0 | model | CompGCN           | 31.6 K
1 | loss  | BCEWithLogitsLoss | 0     
…
Train set :0.00001 in GB

# of CPUs:64 | # of GPUs:1 | # of CPUs for dataloader:1
NVIDIA GeForce RTX 3090
------------------- Train -------------------
Initializing TorchTrainer CPU Trainer...	Took 0.0006 seconds | Current Memory Usage  3383.0 in MB
Initializing Model...	Initializing the selected model... False
Took 0.0190 seconds | Current Memory Usage  3383.0 in MB
MyLCWALitModule(
  (model): DistMultLiteral(
    (loss): BCEWithLogitsLoss()
    (interaction): DistMultInteraction()
    (entity_representations): ModuleList(
      (0): CombinedRepresentation(
        (base): ModuleList(
          (0): Embedding(
            (_embeddings): Embedding(14, 64)
          )
          (1): Embedding(
            (_embeddings): Embedding(14, 2)
          )
        )
        (combination): ConcatProjectionCombination(
          (projection): Sequential(
            (0): Linear(in_features=66, out_features=64, bias=True)
            (1): Dropout(p=0.0, inplace=False)
            (2): Identity()
          )
        )
      )
    )
    (relation_representations): ModuleList(
      (0): Embedding(
        (_embeddings): Embedding(55, 64)
      )
    )
    (weight_regularizers): ModuleList()
  )
  (loss): BCEWithLogitsLoss()
)
  | Name  | Type              | Params
--------------------------------------------
0 | model | DistMultLiteral   | 8.7 K 
1 | loss  | BCEWithLogitsLoss | 0     
--------------------------------------------
8.7 K     Trainable params
28        Non-trainable params
8.7 K     Total params
0.035     Total estimated model params size (MB)
…
